models/apple_grasper_model.pth (torch, 69554 bytes, 12 tensors)

conv_block_1.0.weight f4 [8, 3, 5, 5]
0	0x3da62ae5	0.0811365
1	0x3db3c844	0.08778432
2	0xbd0efd35	-0.034909446
3	0x3dc7cd03	0.097559
4	0xbd068e89	-0.032850776
5	0xbb652168	-0.0034962539
6	0xbda8f90e	-0.082506284
7	0x3d2f3871	0.042778436
8	0x3d9d0e11	0.076686986
9	0xbde47a11	-0.11156095
10	0x3e29fc96	0.1660026
11	0x3db2b0b7	0.08725112
12	0x3e1a070d	0.15041752
13	0x3da56e76	0.080777094
14	0x3df2de71	0.118588336
15	0xbd41d5c0	-0.04732299
16	0x3d6e89c9	0.05823687
17	0xbc6440a1	-0.013931424
18	0xbdae733e	-0.085180745
19	0xbb8d8071	-0.00431829
20	0xbd32e47a	-0.043674923
21	0xbb7cf11f	-0.0038595868
22	0xbd1746e7	-0.036932852
23	0x3db0b658	0.08628529
24	0xbdaf1e46	-0.08550696
25	0xbd74eed0	-0.05979806
26	0xbd245a59	-0.040125225
27	0xbd9de8ba	-0.07710405
28	0x3b36b7bc	0.002788051
29	0xbdf8359f	-0.121196024
30	0x3d9e716b	0.077364765
31	0xbdfe9870	-0.12431419
32	0x3d833a70	0.064076304
33	0xbbbc8c68	-0.0057540424
34	0xbd83ec72	-0.06441583
35	0x3e0c4a50	0.13700223
36	0x3dab4a13	0.08363738
37	0x3e223369	0.15839924
38	0x3d9f4266	0.07776336
39	0x3cd96584	0.026537664
40	0xb935572e	-0.00017293982
41	0xbd7cac9f	-0.06168806
42	0x3c8f3c36	0.017484765
43	0x3d91f1aa	0.07126172
44	0x3d068b24	0.03284754
45	0xbd27c4bb	-0.0409591
46	0x3d9c0922	0.076189294
47	0x3cf9db53	0.03050009
48	0x3d8bffdc	0.06835911
49	0xbd84a664	-0.06477049
50	0xbdf7054f	-0.120615594
51	0xbd555384	-0.0520816
52	0xbdc4ef8b	-0.09616002
53	0x3db0b4a6	0.08628206
54	0x3cd0797d	0.025448555
55	0x3cabff42	0.02099574
56	0x3c2552ce	0.010090543
57	0xbcdc9c4c	-0.026929997
58	0x3d85b250	0.06528151
59	0xbddf04ef	-0.10889613
60	0x3d9562ae	0.07294212
61	0xbc5733ca	-0.013134906
62	0x3dce4d72	0.10073365
63	0x3cd00c4a	0.025396485
64	0x3dc9525a	0.098301604
65	0xbd6179c5	-0.05504777
66	0x3d850ecd	0.06496964
67	0xbdcb083e	-0.099136814
68	0xbdccfb3d	-0.100088574
69	0xbdd161eb	-0.102237545
70	0x3de79cc8	0.113092005
71	0x3d44e047	0.04806545
72	0x3df75c54	0.12078157
73	0xbdaeaa92	-0.085286275
74	0xbddeee9d	-0.108853556
75	0xbdb5d08b	-0.08877667
76	0xbd9dc09e	-0.077027544
77	0x3d8751ef	0.066074245
78	0x3d7ada36	0.06124326
79	0x3deaf67b	0.11472794
80	0xbd954910	-0.07289326
81	0xbdbc97f1	-0.09208668
82	0x3d404787	0.046943214
83	0xbd354604	-0.044256225
84	0x3d75d257	0.06001505
85	0xbd1e555b	-0.03865562
86	0x3d4d326d	0.050096918
87	0xbdc63c43	-0.09679463
88	0xbd9a7065	-0.07540969
89	0x3c52eb7c	0.012873527
90	0x3d5085d7	0.05090889
91	0xbb5ce080	-0.0033703148
92	0x3dc3ce32	0.09560813
93	0x3da8f4a2	0.08249785
94	0xbd968856	-0.07350223
95	0xbc98db82	-0.018659357
96	0x3e16905a	0.14703503
97	0x3b550ed2	0.0032510054
98	0xbc1e5366	-0.009663438
99	0xbda1e5e5	-0.07905177
100	0xbd85ba09	-0.06529624
101	0x3cd8c9fc	0.026463501
102	0x3ba119ec	0.00491642
103	0xbd7f00f3	-0.062256765
104	0x3cbaf0f0	0.022819966
105	0xbdba5121	-0.09097505
106	0xbde18c31	-0.110130675
107	0xbd8f4988	-0.06996447
108	0xbdbea6ba	-0.09309144
109	0xbd8b4020	-0.0679934
110	0x3dc7a723	0.09748676
111	0x3c01d6e8	0.007924773
112	0x3cb8e12f	0.022568313
113	0xbdf8a549	-0.12140901
114	0xbdbbfad5	-0.09178702
115	0xbc3e34f9	-0.011609309
116	0x3d33b2e9	0.043871794
117	0xbd978c12	-0.07399763
118	0xbd26e70a	-0.04074768
119	0xbd739ed4	-0.059477642
120	0x3d2fe741	0.04294515
121	0xba4a888b	-0.0007726035
122	0x3d0b5f1c	0.03402625
123	0xbd3e3a95	-0.046442587
124	0xbd40aabd	-0.04703783
125	0xbd883033	-0.06649818
126	0xbd23db7a	-0.04000423
127	0xbd8f5a9c	-0.06999704
128	0x3ded6378	0.11591238
129	0xbb213619	-0.0024598895
130	0x3da1f821	0.07908655
131	0x3c89b718	0.016810939
132	0xbdd00bdb	-0.10158511
133	0x3d8ceaf6	0.06880753
134	0xbcfc9030	-0.030830473
135	0xbd6049a3	-0.054757725
136	0xbdd6052b	-0.104502045
137	0xbdf75e98	-0.12078589
138	0x3c30afa8	0.010784067
139	0xbd35fe57	-0.04443201
140	0x3d921bc1	0.071342
141	0xbd8bff00	-0.06835747
142	0x3de63c5f	0.112419836
143	0xbd9847eb	-0.07435592
144	0xbc489b11	-0.012244002
145	0x3d886759	0.06660337
146	0x3dcf3d5b	0.101191245
147	0x3e09defd	0.1346397
148	0x3e0989ce	0.13431475
149	0xbd7257e6	-0.059165858
150	0xbbdcf171	-0.0067426492
151	0xbdae0c1d	-0.08498404
152	0xbd3d714d	-0.04625063
153	0xbdf52a02	-0.11970903
154	0x3d8fcda8	0.07021648
155	0xbd86baa1	-0.065785654
156	0x3d9c890f	0.07643329
157	0x3d63a090	0.055573046
158	0x3d371db5	0.044706065
159	0xbd5808ae	-0.052742653
160	0x3e1ae7ce	0.15127489
161	0x3d936474	0.07196894
162	0x3d7d155b	0.061787944
163	0xbd3bcd5c	-0.045850143
164	0x3dca3698	0.09873694
165	0x3b990877	0.0046701985
166	0xbcfc7064	-0.03081531
167	0x3df79671	0.12089241
168	0x3d4316ae	0.04762905
169	0xbd44521a	-0.04792986
170	0xbcb57132	-0.022148702
171	0x3cfbfcca	0.030760188
172	0x3dc70e73	0.09719553
173	0x3c0c083d	0.008546886
174	0xbd084bcb	-0.033275407
175	0xbd9995f0	-0.074993014
176	0xbdf89885	-0.12138466
177	0x3beca7fa	0.007222173
178	0x3d60ca5e	0.054880492
179	0xbe117a38	-0.14206779
180	0x3d2f7ff9	0.042846654
181	0x3d986efc	0.074430436
182	0x3d14fabc	0.03637193
183	0xbcfddfd4	-0.030990519
184	0x3d866be7	0.065635495
185	0x3ddb761c	0.10715887
186	0x3db7b83a	0.08970685
187	0x3cdb5790	0.026775151
188	0x3ccde44b	0.025133273
189	0x3d80d7e1	0.06291176
190	0x3ad1a156	0.0015993516
191	0xbc4a654f	-0.012353255
192	0x3dc3b6d8	0.09556359
193	0x3df7cfbe	0.121001706
194	0x3b90035c	0.0043949317
195	0x3c25344d	0.01008327
196	0x3d1b21bc	0.03787397
197	0x3cdbc4a5	0.026827166
198	0x3d85d1e1	0.06534172
199	0x3d81b204	0.06332782
200	0xbe0f554e	-0.13997385
201	0xbd9fad6d	-0.0779675
202	0x3d80d9b7	0.06291526
203	0x3c30a70a	0.010782013
204	0xbd235f77	-0.039885964
205	0xbd50ef36	-0.05100938
206	0xbd5619c8	-0.05227068
207	0xbdaef58c	-0.08542928
208	0xbce2904a	-0.027656693
209	0x3d384679	0.044989083
210	0x3df5e09a	0.1200573
211	0x3dcc667c	0.09980485
212	0xbd6006d5	-0.054694016
213	0xbc5f2370	-0.013619289
214	0x3d0572ca	0.032580175
215	0x3e08b480	0.13350105
216	0x3d1e73a7	0.038684513
217	0xbc029e5a	-0.007972324
218	0x3d8e95c1	0.06962157
219	0xbce5f95e	-0.02807301
220	0xbd1cc289	-0.03827146
221	0x3df496d3	0.1194283
222	0xbc950864	-0.018192478
223	0x3c7365da	0.014855826
224	0xbda70b15	-0.081564106
225	0x3d81fd1d	0.06347106
226	0x3d9395c6	0.072063014
227	0x3d4dcc8e	0.050243907
228	0xbd5b5bc5	-0.053554315
229	0xbda7dd54	-0.08196512
230	0xbd109038	-0.035293788
231	0x3dec3808	0.115341246
232	0x3db0cd1b	0.08632871
233	0x3e01feea	0.12694898
234	0x3dbb58c2	0.091477886
235	0xbbdb7efc	-0.0066984873
236	0xbd0de969	-0.034646425
237	0xbdfd1429	-0.12357361
238	0xbe08ff26	-0.13378581
239	0xbe11bb74	-0.14231664
240	0x3c1e3f1f	0.009658604
241	0xbd649f1b	-0.055815797
242	0xbd151527	-0.036397126
243	0xbd9625f5	-0.073314585
244	0xbd0a30e4	-0.033738032
245	0xbcf89979	-0.030346619
246	0xbcd31165	-0.02576513
247	0x3d8775e4	0.06614283
248	0xbb9cbd5b	-0.004783315
249	0x3dc96cf3	0.098352335
250	0xbacaee36	-0.0015482369
251	0xbd204f9b	-0.039138418
252	0xbb91868d	-0.0044410885
253	0xbd04f7f7	-0.03246304
254	0xbc6c091f	-0.0144064715
255	0xbd4c083d	-0.049812544

conv_block_1.0.bias f4 [8]
0	0xbb7787d9	-0.003777018
1	0x3dd3302e	0.10311924
2	0xbd8201b9	-0.06347985
3	0xbd811587	-0.06302934
4	0x3ce3a88d	0.027790332
5	0xbd35b214	-0.04435928
6	0xbcb4be56	-0.022063415
7	0x3d0de56b	0.03464262

conv_block_2.0.weight f4 [16, 8, 3, 3]
0	0x3e22b8b6	0.15890774
1	0x3e3b4f67	0.18292008
2	0x3e1372e0	0.1439929
3	0xbd261c18	-0.040554136
4	0xbd46a6d9	-0.048498962
5	0x3e08f11a	0.13373223
6	0xbb789a22	-0.0037933667
7	0xbd29505c	-0.041336402
8	0xbcca3a85	-0.024686107
9	0xbdfa494a	-0.1222101
10	0xbdb98ffc	-0.09060666
11	0x3da0942c	0.078407615
12	0x3cc0e9f6	0.023549061
13	0x3d1340bc	0.035950407
14	0xbd45d253	-0.048296284
15	0xbd42fd69	-0.047604952
16	0x3cbacba3	0.02280218
17	0xbd089a10	-0.03335005
18	0x3c182675	0.009286513
19	0x3d969d79	0.07354254
20	0xbda851df	-0.08218741
21	0x3d230ca3	0.039806973
22	0xbd746650	-0.059667885
23	0xbd1996a4	-0.037497178
24	0x3d3aea53	0.045633625
25	0x3dcc0af3	0.09963026
26	0xbc92007b	-0.017822495
27	0xbd7c880e	-0.06165319
28	0xbdfb3710	-0.12266362
29	0xbd9d3493	-0.07676043
30	0xbe04276f	-0.12905668
31	0xbd9d6827	-0.07685881
32	0xbd1b904a	-0.0379794
33	0xbe070ebe	-0.13189217
34	0x3d34d07a	0.04414413
35	0x3c964633	0.01834402
36	0xbd552a67	-0.05204239
37	0x3b1c6a6f	0.002386715
38	0x3dc7f5f3	0.09763708
39	0xbd98b762	-0.074568525
40	0xbd8ea4c4	-0.0696502
41	0xbdc48341	-0.09595347
42	0x3e0a4d18	0.13505971
43	0xbc4d89e6	-0.012545085
44	0x3e19cfa4	0.15020615
45	0x3d90349c	0.070412844
46	0x3dbaba6a	0.09117587
47	0x3e1a981b	0.15097086
48	0xba2ed199	-0.0006668806
49	0xbd2b100a	-0.041763343
50	0x3b7d99ce	0.003869641
51	0x3d78b059	0.060715053
52	0xbdf000e3	-0.11718919
53	0xbc39c712	-0.011338966
54	0xbd8bed78	-0.06832403
55	0x3dde9def	0.10869967
56	0x3db8b176	0.09018223
57	0xbd54794f	-0.0518735
58	0xbb9066a7	-0.0044067684
59	0xbd55cc32	-0.05219669
60	0x3de65676	0.1124696
61	0xbd3c8919	-0.046029184
62	0x3cf7bc61	0.030241193
63	0x3ddf5636	0.10905115
64	0x3e33f411	0.17573573
65	0x3df0560d	0.11735163
66	0xbe0693da	-0.13142338
67	0x3d3cde96	0.046110712
68	0xbd9eb4db	-0.07749339
69	0x3cd73d41	0.026274325
70	0xbd5eeae5	-0.05442323
71	0x3d057976	0.032586537
72	0x3e0fed97	0.14055477
73	0x3d9671c4	0.07345918
74	0xbc3e4960	-0.011614174
75	0x3d7f49fb	0.062326413
76	0xbc470618	-0.012147449
77	0x3e079049	0.13238634
78	0xbe193ca5	-0.1496454
79	0xbdb2ef5d	-0.08737061
80	0xbe23dbc5	-0.16001804
81	0xbd5d63c1	-0.05405021
82	0x3c9fbb52	0.019498501
83	0x3d9a0358	0.07520169
84	0xbc19dd19	-0.009391093
85	0x3d98999f	0.07451176
86	0xbc077658	-0.008267961
87	0x3d5c5e39	0.053800795
88	0x3d98a200	0.07452774
89	0x3dc936c9	0.098249026
90	0xbcc59d7d	-0.024122948
91	0x3e0d5c29	0.13804688
92	0x3ddaae00	0.10677719
93	0xbd55ca08	-0.052194625
94	0xbd586a4a	-0.05283574
95	0xbdc316c8	-0.095258296
96	0x3c05f7c8	0.008176751
97	0xbdb102c7	-0.08643108
98	0x3cdf7ab0	0.027280182
99	0xbc0ff751	-0.008786992
100	0xbde2174c	-0.110396
101	0xbb670539	-0.0035250916
102	0xbd836401	-0.064155586
103	0xbc5516ee	-0.013005955
104	0xbac44e3f	-0.0014976932
105	0xbe1d0a18	-0.15335882
106	0x3d346576	0.044042073
107	0x3d194398	0.037417978
108	0x3dd63af6	0.10460465
109	0xbd32e35c	-0.043673858
110	0x3cad24be	0.021135684
111	0xbda851b8	-0.082187116
112	0xbda26762	-0.07929875
113	0x3a9b8eaa	0.0011868079
114	0x3d90acbe	0.07064198
115	0x3df4f074	0.11959925
116	0xbc061d52	-0.008185701
117	0x3dc9b800	0.09849548
118	0x3dd12385	0.10211853
119	0xbd05d0ac	-0.032669708
120	0xbdc875e9	-0.097881146
121	0xbd3512fa	-0.04420755
122	0x3dbe147e	0.09281252
123	0xbe09e51f	-0.13466309
124	0xbdea9378	-0.11453909
125	0x3d0f47ad	0.034980465
126	0x3dcd875b	0.10035583
127	0x3e085ab6	0.13315853
128	0xbd4d7e4b	-0.05016927
129	0xbe17041f	-0.14747666
130	0xbbd1fd2e	-0.006408355
131	0x3d0c8164	0.034303084
132	0x3dac3316	0.08408181
133	0x3d03c41d	0.03216945
134	0x3d5648aa	0.05231539
135	0x3e22a515	0.15883286
136	0xbcd4f9d1	-0.025998028
137	0xbb59fbfe	-0.0033261771
138	0x3d02bbca	0.03191737
139	0xbe054cdf	-0.13017605
140	0xbde35f55	-0.111021675
141	0x3deb3ee1	0.114866026
142	0x3d887a38	0.066639364
143	0x3d8b7d73	0.06811037
144	0x3c1041df	0.008804767
145	0x3d36cdee	0.044629984
146	0x3e1797f1	0.14804055
147	0xbd5de8d9	-0.05417714
148	0xbaa1340e	-0.0012298839
149	0x3d56e061	0.05246008
150	0xbd969317	-0.07352274
151	0x3dc5c196	0.09656064
152	0xbd8c060f	-0.06837093
153	0xbd064e81	-0.03278971
154	0xbd186379	-0.03720424
155	0xbd9d5230	-0.07681692
156	0xbd71b465	-0.05900993
157	0x3d8761c3	0.066104434
158	0x3d18187c	0.037132725
159	0xbd8e6a0a	-0.06953819
160	0xbd3f185a	-0.046654083
161	0x3dd68603	0.104747795
162	0x3d7c7192	0.061631747
163	0x3d7bf2ae	0.061510734
164	0xbcb87b28	-0.022519663
165	0xbcc30a0d	-0.023808504
166	0x3bc2092b	0.005921503
167	0xbbdd4d33	-0.0067535876
168	0xbd3b248d	-0.045689154
169	0x3ca5af7d	0.02022528
170	0x3c6d96e8	0.014501311
171	0xbcfb297c	-0.03065943
172	0xbcad4539	-0.021151172
173	0xbd450e73	-0.048109483
174	0xbd0112d5	-0.0315121
175	0xbc653c96	-0.013991496
176	0xbda92e2c	-0.0826076
177	0xbdece88a	-0.11567791
178	0x380dee34	3.3838864e-05
179	0xbcd966aa	-0.026538212
180	0xbc3d71be	-0.011562763
181	0x3e058db3	0.13042335
182	0xbc8e5ff8	-0.017379746
183	0x3cd11c58	0.02552621
184	0x3bb47111	0.0055066426
185	0xbe0826ae	-0.13296005
186	0x3db8aa16	0.09016816
187	0xbd798440	-0.06091714
188	0xbc964103	-0.018341547
189	0x3d19ec44	0.037578836
190	0xbd4f4618	-0.050603956
191	0x3e111903	0.14169697
192	0x3ac864f3	0.0015288874
193	0x3d245243	0.040117513
194	0xbdde7b5b	-0.10863372
195	0x3d8020d1	0.06256259
196	0xbcf0e8b1	-0.02940783
197	0xbd8e8627	-0.06959181
198	0x3d05c61d	0.03265964
199	0x3d87aed7	0.06625145
200	0x3de002b9	0.10938019
201	0xbd969f13	-0.0735456
202	0xbd9d5a83	-0.07683279
203	0xbc14153c	-0.009038266
204	0x3d66b4c5	0.05632474
205	0x3d8d7ea3	0.0690892
206	0x3dadbd15	0.0848333
207	0x3c1aae79	0.009441012
208	0x3daa8fa6	0.0832818
209	0x3dd6570c	0.104658216
210	0xbd9bc952	-0.07606758
211	0x3cfbc0b3	0.030731535
212	0x3b051a97	0.0020310038
213	0x3e04107f	0.12896918
214	0xbcd695ba	-0.026194442
215	0xbc77c8be	-0.015123544
216	0xbbcb4a84	-0.0062039513
217	0x3cf608b9	0.030033456
218	0x3dcb0ca7	0.099145226
219	0xbdf4817e	-0.11938761
220	0x3bd5cf0a	0.006524925
221	0xbdb5c86f	-0.0887612
222	0x3e129a1c	0.143166
223	0x3d877bad	0.06615386
224	0xbd01c96b	-0.031686228
225	0xbd3a2736	-0.04544755
226	0xbd8c2fa2	-0.06845023
227	0x3d8167cc	0.06318626
228	0xbca8db5e	-0.020612415
229	0x3d17ba98	0.037043184
230	0x3dbd4c9c	0.09243128
231	0xbd8f9723	-0.07011249
232	0x3c0423ff	0.008065223
233	0xbddb9268	-0.10721284
234	0xbd2b965f	-0.041891452
235	0xbd8aaf74	-0.06771746
236	0x3bf883a9	0.0075840545
237	0x3c693fa2	0.014236363
238	0x3d8c6988	0.06856066
239	0x3d02cfe9	0.03193656
240	0x3de925ab	0.11384138
241	0x3e24d34c	0.16096228
242	0x3de0c166	0.10974388
243	0xbd97f134	-0.07419053
244	0xbe0345af	-0.12819551
245	0xbab2afc6	-0.0013632707
246	0xbd84c7e2	-0.06483437
247	0x3d1344dd	0.035954345
248	0x3d5cd01b	0.053909402
249	0x3d16591e	0.036706083
250	0x3dd008bc	0.10157916
251	0x3dc7dfaf	0.09759461
252	0xbc8a54c5	-0.016886124
253	0xbdfa7e4c	-0.122311205
254	0x3d8ac22d	0.06775317
255	0xbc6d7ea8	-0.014495529

conv_block_2.0.bias f4 [16]
0	0xbcbf501a	-0.023353625
1	0xbcf2b496	-0.029627126
2	0xbdc59da2	-0.09649207
3	0x3caee502	0.021349434
4	0xbe07cc70	-0.1326158
5	0xbbe30044	-0.006927522
6	0x3d8f561f	0.06998848
7	0x3de794a4	0.11307648
8	0x3dd1a707	0.10236936
9	0x3dc1c059	0.094605155
10	0x3dbd819a	0.09253235
11	0xbcd012df	-0.025399623
12	0xbd849fd8	-0.064758
13	0x3d40cc37	0.047069754
14	0x3e0c7d78	0.13719738
15	0x3a0192e7	0.00049428496

conv_block_3.0.weight f4 [32, 16, 3, 3]
0	0x3d424009	0.04742435
1	0x3be1d35c	0.006891651
2	0x3c940528	0.018068865
3	0xbdbd61ee	-0.09247194
4	0x3d19e54d	0.037572194
5	0xbd54c5c4	-0.051946416
6	0xbd55efa3	-0.05223049
7	0x3d03b029	0.03215042
8	0x3d06ddff	0.032926556
9	0x3d45d573	0.048299264
10	0x3db645bf	0.08900022
11	0x3dca8a0f	0.09889614
12	0xbe080e7c	-0.13286775
13	0xbdf414a0	-0.119179964
14	0xbd61b53a	-0.05510447
15	0xbd1a8413	-0.037723612
16	0xbd15a89d	-0.036537755
17	0x3dc5f382	0.09665586
18	0x3d1a30c9	0.03764418
19	0x3c790737	0.015199474
20	0x3d02381a	0.031791784
21	0xbd978bd6	-0.073997185
22	0x3d21d8da	0.039513446
23	0xbd379765	-0.044822115
24	0xbcb694d8	-0.022287771
25	0xbcd1ca38	-0.02560912
26	0x3d7b1384	0.06129791
27	0xbcf35990	-0.029705793
28	0xbcd53477	-0.026025994
29	0xbd130a49	-0.03589848
30	0xba4fd3aa	-0.0007927964
31	0x3d78e255	0.060762722
32	0x3de5f868	0.1122902
33	0xbcc144b3	-0.023592329
34	0x3cf2e323	0.029649323
35	0xbcf63d6d	-0.030058587
36	0xbd5a94ee	-0.053364687
37	0x3c80184f	0.015636591
38	0xbcf24eba	-0.029578555
39	0x3cca9916	0.0247312
40	0xbd32fcd2	-0.04369814
41	0xbd7dec1d	-0.061992753
42	0xbd30ef99	-0.043197248
43	0x3d0f5fa9	0.035003338
44	0xbd4ca863	-0.049965274
45	0x3daaebc9	0.08345754
46	0x3d6e7d27	0.058224823
47	0x3d43fc79	0.0478482
48	0x3d23080f	0.039802607
49	0xbce3b727	-0.027797295
50	0x3d25eea0	0.040510774
51	0xbcde073a	-0.027103055
52	0x3ba34a13	0.0049831956
53	0x3d9dc56e	0.07703672
54	0xbc187a88	-0.0093065575
55	0xbd26e6f8	-0.040747613
56	0xbd1d0df3	-0.03834338
57	0x3b0cad22	0.00214655
58	0x3dd7de88	0.10540491
59	0x3d4c08e1	0.049813155
60	0xbd6a8e5b	-0.057264667
61	0xbd053303	-0.03251935
62	0x3c44d36a	0.012013296
63	0xbc3a5b1b	-0.01137426
64	0x3b9b0174	0.004730398
65	0x3dbad53b	0.09122702
66	0x3d9bf336	0.07614748
67	0xbc2d7a5d	-0.010588256
68	0xbd5abeb4	-0.053404525
69	0x3bfd08c6	0.007721993
70	0x3d23c442	0.039982088
71	0x3c439ba3	0.011938962
72	0x3dc6cd1b	0.097070895
73	0xbccaa6b9	-0.024737703
74	0x3db7c6b9	0.0897345
75	0xbdad4843	-0.084610485
76	0x3c9bed0b	0.01903393
77	0x3d040955	0.032235462
78	0x3d4e3d77	0.050351586
79	0x3dc0732a	0.09396966
80	0xbcfaa288	-0.030595079
81	0xbcef4cb8	-0.029211387
82	0xbd149f4a	-0.036284722
83	0x3dce9113	0.100862645
84	0x3cab6821	0.020923676
85	0xbd78c238	-0.060732096
86	0x3d106959	0.035256717
87	0x3dce76c6	0.10081248
88	0xbd5e3719	-0.054251764
89	0x3db3a284	0.08771232
90	0xbc30e361	-0.010796399
91	0xbc1c99dd	-0.009558168
92	0x3d789f76	0.06069895
93	0x3e03f048	0.12884629
94	0x3db53424	0.08847836
95	0x3defdd6a	0.11712153
96	0xbc9859a8	-0.018597439
97	0xbd1ae4d6	-0.03781589
98	0xbdf77a32	-0.12083854
99	0x3ace82ea	0.0015755568
100	0xbd3be15a	-0.04586921
101	0x3bca2f88	0.006170217
102	0x3c71802f	0.014740034
103	0x3c5a5ed8	0.013328277
104	0xbd202c59	-0.039104793
105	0x3c6b2e22	0.014354261
106	0x3db7f749	0.08982713
107	0x3d9cf499	0.07663841
108	0x3dbbdf47	0.09173446
109	0x3cf1ddf3	0.029524779
110	0x3d2db319	0.04240713
111	0xbd82048c	-0.063485235
112	0x3ccc5ded	0.024947131
113	0xbd8c36f6	-0.068464205
114	0x3dbc5b71	0.091971286
115	0x3dcf8b92	0.10134043
116	0xbd03f382	-0.03221465
117	0x3cc3071d	0.023807103
118	0x3c20b652	0.009809094
119	0xbcbb9429	-0.022897797
120	0xb8b7fd94	-8.7733526e-05
121	0xbd3350b6	-0.043778144
122	0x3d108559	0.03528342
123	0xba90d14d	-0.0011048705
124	0x3dad2efa	0.08456226
125	0xbcb2affd	-0.021812433
126	0xbd11dffb	-0.035613995
127	0x3c5d8d2e	0.013522429
128	0x3da11756	0.07865779
129	0x3da8bc2e	0.082390174
130	0xbce55d76	-0.027998667
131	0x3d479ce8	0.04873362
132	0xbd1479bd	-0.03624891
133	0x3cacad8d	0.02107885
134	0xbd57dba0	-0.052699685
135	0xbc2151cd	-0.009846163
136	0x3d93bd3a	0.072138265
137	0xbd63e1a0	-0.055635095
138	0xbd135612	-0.035970755
139	0x3d7b97ef	0.061424192
140	0x3d65ecc3	0.056133997
141	0xbd5502ee	-0.052004747
142	0x3d292af5	0.041300733
143	0xbda61125	-0.08108739
144	0xbd95c2fb	-0.0731258
145	0xbdaa8dcd	-0.083278276
146	0xbd2a6cb7	-0.041607585
147	0x3d1b97eb	0.037986677
148	0x3db749a1	0.089495905
149	0x3d63fb5f	0.055659648
150	0x3c82b9df	0.01595777
151	0xbce8cc2e	-0.028417673
152	0x3d2d8446	0.042362474
153	0x3c8e2f9b	0.017356684
154	0xbdbc1d1f	-0.09185242
155	0xbd3e1449	-0.046406064
156	0xbc1fc1bf	-0.0097507825
157	0x3d9a513e	0.07535027
158	0xbc49085c	-0.012270059
159	0xbd2d12f8	-0.042254418
160	0x3d440dc8	0.047864705
161	0xbd9ffb98	-0.078116596
162	0xbbfdbabe	-0.0077432087
163	0xbd2c89e2	-0.042123683
164	0xb7ce2978	-2.4576424e-05
165	0x3c6db6b1	0.014508889
166	0x3d9a7986	0.0754271
167	0x3d189983	0.037255775
168	0xbc16b716	-0.0091989245
169	0x3caf699a	0.02141266
170	0xbd91240f	-0.07086956
171	0xbc4263f3	-0.01186465
172	0x3de8dbcf	0.1137005
173	0x3bc0c0ec	0.005882373
174	0xbd3b31d2	-0.04570181
175	0xbae051d4	-0.001711423
176	0xbcec0d3b	-0.028814903
177	0xbc049733	-0.008092689
178	0xbd4f136d	-0.050555635
179	0x3c20c736	0.009813121
180	0xbcba846d	-0.022768224
181	0x3b635a6c	0.0034691347
182	0x3cbbc70f	0.022922067
183	0xbbd7effe	-0.0065898886
184	0xbc17ce92	-0.009265559
185	0xbbd08e68	-0.0063646324
186	0xbcbad281	-0.022805454
187	0xbc90f416	-0.017694514
188	0xbcc85b66	-0.024457645
189	0xbd549154	-0.05189641
190	0xbd25b42f	-0.04045504
191	0x3d47cc84	0.048779026
192	0x3b6868dd	0.0035462894
193	0x3c955104	0.018227108
194	0x3d2402a4	0.04004158
195	0xbb008d15	-0.0019615341
196	0xbcd44a5b	-0.025914362
197	0xbd03fb82	-0.03222228
198	0x3b63ea50	0.0034777112
199	0x3d576555	0.052586872
200	0xbcec3142	-0.028832082
201	0xbcbabba2	-0.022794548
202	0x3bc00461	0.005859897
203	0x3d0f2d27	0.03495517
204	0x3daa53bc	0.08316752
205	0x3d98413f	0.0743432
206	0x3dbfa268	0.093571484
207	0x3d236f8a	0.039901294
208	0x3cfe1d1a	0.031019736
209	0xbc8f4ec1	-0.017493607
210	0xbcd5834c	-0.026063584
211	0x3cab7351	0.02092901
212	0x3cb52997	0.022114558
213	0x3d45251e	0.0481311
214	0x3d083628	0.033254772
215	0x3d672728	0.056433827
216	0x3d8343f1	0.06409443
217	0xbc442795	-0.011972328
218	0xbd6b86c6	-0.057501577
219	0x3c41ea4f	0.011835649
220	0x3c8a50a8	0.016884163
221	0x3d9d39ae	0.07677017
222	0xbd1f7791	-0.038932387
223	0xbb88dc08	-0.0041766204
224	0xbc87d7bf	-0.016582368
225	0xbd255f1a	-0.0403739
226	0x3cf394a2	0.02973396
227	0xbcf2139d	-0.029550368
228	0x3d3bca5d	0.045847286
229	0xbb55513c	-0.003254964
230	0x3d20ab25	0.039225716
231	0x3c61c49a	0.013779784
232	0x3b0b23fe	0.002123117
233	0xbce280e0	-0.027649343
234	0x3d142030	0.03616351
235	0xbb3f8baa	-0.0029227533
236	0xbcceeeb7	-0.025260312
237	0xbd950659	-0.07276601
238	0xbd07cb58	-0.033152908
239	0xbdb708e1	-0.089372404
240	0x3e0300a4	0.12793213
241	0x3ca8562a	0.020548899
242	0x3cc5a3f1	0.024126025
243	0x3cc484d5	0.02398912
244	0x3d0688dc	0.032845363
245	0x3ce2420c	0.027619384
246	0x3d594fcf	0.053054627
247	0xbc44bf4f	-0.012008502
248	0x3cbb5718	0.022868678
249	0xbd117d25	-0.035519738
250	0xbda29509	-0.079385825
251	0xbd314747	-0.043280866
252	0x3c8e9087	0.0174029
253	0x3c0c0f68	0.008548595
254	0x3d36da9e	0.044642083
255	0x3da91fc2	0.082580104

conv_block_3.0.bias f4 [32]
0	0x3dc713b5	0.09720556
1	0x3b7233fa	0.003695725
2	0x3d73b900	0.0595026
3	0x3dc1b9ad	0.09459243
4	0x3d9ab606	0.075542495
5	0x3d11b3d6	0.035571896
6	0x3d0d2db6	0.03446742
7	0x3d1d0492	0.038334437
8	0x3dd83d78	0.10558599
9	0xbc8c16ea	-0.01710077
10	0xbd3da791	-0.046302382
11	0x3d6104dc	0.054936275
12	0xbd1728c8	-0.036904126
13	0xbb630404	-0.0034639845
14	0x3cb97454	0.022638477
15	0x3db91d73	0.0903882
16	0x3d2e4dc5	0.042554636
17	0xbcf093a0	-0.029367268
18	0x3dbca9fa	0.09212108
19	0xbc35a9b0	-0.01108782
20	0x3d773db2	0.06036157
21	0x3d0bfa9e	0.034174554
22	0x3d7f74e2	0.062367328
23	0x3c5970ef	0.013271554
24	0xbc1f7bbc	-0.00973409
25	0x3c87aa7f	0.016560791
26	0x3d12e2cd	0.035860825
27	0xbc517ba3	-0.012785825
28	0x3da7f53c	0.082010716
29	0xbbeb93f6	-0.007189269
30	0x3d516ece	0.051131062
31	0xbdb36d5e	-0.087610945

conv_block_3.2.weight f4 [8, 32, 5, 5]
0	0xb4dfc67e	-4.168141e-07
1	0x325a24c0	1.2697626e-08
2	0x362437a7	2.4470298e-06
3	0x35e6b844	1.7189964e-06
4	0x361d024d	2.3396162e-06
5	0xbd41c9cb	-0.047311585
6	0xbd431f36	-0.047637187
7	0xbd55b8d3	-0.052178215
8	0xbcf8a735	-0.030353168
9	0xbd04d479	-0.032429192
10	0xbcaa3803	-0.020778662
11	0xbd0a8489	-0.0338178
12	0xbace3fec	-0.0015735603
13	0xbd2e63fb	-0.042575818
14	0xbd44ee1c	-0.04807864
15	0x3cfb1a29	0.030652123
16	0xbc4fbf9a	-0.012679959
17	0x3cae8482	0.021303419
18	0x3c2f1a62	0.0106874425
19	0x3d24c644	0.040228143
20	0x3d9aa457	0.075508766
21	0x3c94bf78	0.018157706
22	0x3d368265	0.044557948
23	0x3c98bb19	0.018643903
24	0x3d8ac13c	0.06775138
25	0xb71f0dc5	-9.4803445e-06
26	0x3641caf0	2.8877366e-06
27	0x356f7e84	8.921854e-07
28	0x34e640ca	4.288798e-07
29	0x35dcb7ce	1.6444772e-06
30	0xbc2cc170	-0.010544166
31	0xbcaec05e	-0.021331962
32	0xbc4ceed8	-0.012508117
33	0xbc495239	-0.01228767
34	0xbc85c470	-0.01632902
35	0x3d03ccc7	0.032177713
36	0x3d22967b	0.03969429
37	0x3c94e9f6	0.018177968
38	0x3d12269c	0.035681352
39	0x3cf8a17b	0.030350437
40	0x3ccc1b01	0.02491522
41	0xbbbf064e	-0.005829609
42	0x3cf7d068	0.030250743
43	0x3c316494	0.010827202
44	0x3d048452	0.032352753
45	0xbc3651d1	-0.011127905
46	0xbc8b0c5b	-0.016973665
47	0xba7a1afa	-0.0009540763
48	0x3bf517fb	0.0074796653
49	0x3ba79814	0.0051145647
50	0xb6142405	-2.2074685e-06
51	0xb4dc7121	-4.1060505e-07
52	0xb6f98170	-7.435847e-06
53	0xb2a14730	-1.877524e-08
54	0xb6a2d09d	-4.852262e-06
55	0xbcec212f	-0.028824417
56	0xbd3c0f2c	-0.045912907
57	0xbd076e35	-0.033064086
58	0xbd0a7e92	-0.033812113
59	0xbd20ac55	-0.03922685
60	0x3d88feca	0.06689222
61	0x3d466c6c	0.048443243
62	0x3d672071	0.056427423
63	0x3ceebec6	0.029143702
64	0x3d377fe8	0.044799715
65	0xbccddb7a	-0.025129069
66	0xbd1a3c57	-0.0376552
67	0xbda5cd67	-0.08095818
68	0xbd56ce6a	-0.052442946
69	0xbcca6b90	-0.024709493
70	0x3ca4bcb6	0.020109516
71	0x3d0bfae0	0.0341748
72	0x3d7769c4	0.0604036
73	0x3d93821b	0.0720255
74	0x3d967eb6	0.07348387
75	0xb6948867	-4.426623e-06
76	0x370b9bce	8.321322e-06
77	0x3637255c	2.729087e-06
78	0x348f60f6	2.6706374e-07
79	0xb6754400	-3.6547426e-06
80	0xbc978ee0	-0.018500745
81	0xbc93d49c	-0.018045716
82	0xbcdf2963	-0.027241414
83	0xba17a2b5	-0.0005784438
84	0xbc8824b9	-0.016619073
85	0x3d6826ad	0.05667751
86	0x3d28ce34	0.041212276
87	0x3cf3468f	0.02969673
88	0x3c8c3fdb	0.017120292
89	0x3d653f98	0.05596885
90	0xbd64ef2f	-0.055892166
91	0xbbe79b11	-0.007068046
92	0xbcf6cc82	-0.030126814
93	0xbd0582e5	-0.032595534
94	0xbc034ae4	-0.008013461
95	0xbbeb3671	-0.007178121
96	0xbd6fdc1c	-0.058559522
97	0xbd49a63f	-0.04923081
98	0xba77788a	-0.0009440264
99	0xbd02cc03	-0.031932842
100	0x36210e1b	2.399908e-06
101	0xb685931a	-3.9808338e-06
102	0x35b5ea8e	1.3553815e-06
103	0xb6a7b240	-4.997739e-06
104	0x363e5f9e	2.8367863e-06
105	0xbd05d776	-0.032676183
106	0xbcd59dd6	-0.026076239
107	0xbd294899	-0.041329
108	0xbd0dfec1	-0.03466678
109	0xbd0bc1fe	-0.034120552
110	0xbb948694	-0.0045326445
111	0xbc7a0d81	-0.015262009
112	0x3cafc9c3	0.021458512
113	0xbbefd7b0	-0.007319413
114	0x3bf35dfe	0.007426976
115	0xbbeb5b7c	-0.0071825366
116	0x3b54d10c	0.0032473234
117	0x3c9225fd	0.01784038
118	0x3cb0cc95	0.021581927
119	0x3d1807ca	0.037116803
120	0x3d7c890a	0.061654128
121	0x3d738de8	0.059461504
122	0x3ce54e8c	0.027991556
123	0x3d9785ee	0.07398592
124	0x3d8a2ec6	0.067472026
125	0xb5fb5cd0	-1.8727969e-06
126	0x3513885a	5.4960185e-07
127	0x36441b7b	2.9222272e-06
128	0x36a92f6d	5.0421136e-06
129	0xb2a8193f	-1.9569255e-08
130	0xbd368c67	-0.04456749
131	0xbd0db019	-0.034591768
132	0xbd3d2132	-0.046174236
133	0xbd35482e	-0.04425829
134	0xbcef529a	-0.029214192
135	0x3d68d6f4	0.05684562
136	0x3d87492e	0.06605755
137	0x3c85c0e7	0.016327335
138	0x3cd14f52	0.025550518
139	0x3d586a56	0.052835785
140	0xbc12b8fa	-0.008955235
141	0xbcc6155d	-0.024180109
142	0x3c9a8f0b	0.018867036
143	0xbc332b4e	-0.010935618
144	0x3cb81018	0.022468612
145	0x3d0e5305	0.034747142
146	0x3d4bb180	0.049729824
147	0x3b5ff039	0.0034170283
148	0x3d6a08f9	0.057137463
149	0x3d1440fd	0.03619479
150	0x3522398e	6.0433456e-07
151	0xb73e1846	-1.1330534e-05
152	0x35d20216	1.5646826e-06
153	0x355d6502	8.24759e-07
154	0x35dc2052	1.6400684e-06
155	0xbce55c8d	-0.027998233
156	0xbd043990	-0.03228146
157	0xbcf59b3f	-0.029981254
158	0xbd07b0bc	-0.03312753
159	0xbcaa0806	-0.020755779
160	0x3d72a090	0.059235156
161	0x3d818459	0.063240714
162	0x3d043e90	0.032286227
163	0x3d288b9d	0.04114877
164	0x3d05f365	0.032702822
165	0xbc0c006e	-0.008545024
166	0xbc4651a2	-0.012104424
167	0x3b1d5ebf	0.0024012772
168	0x3baaeebe	0.0052164486
169	0x3b9fd81c	0.004878057
170	0x3d22472d	0.03961866
171	0x3cb74664	0.022372432
172	0x3d605744	0.054770723
173	0x3c984a24	0.01859004
174	0x3c8ba96c	0.01704856
175	0x34127dd2	1.3643083e-07
176	0xb705af58	-7.968243e-06
177	0x3617fdef	2.2648562e-06
178	0xb70b1ce0	-8.291769e-06
179	0x35bb397d	1.3949317e-06
180	0xbd4c03b3	-0.049808215
181	0xbd318f8e	-0.043349795
182	0xbd1b1e5a	-0.037870742
183	0xbd27c31a	-0.040957548
184	0xbcbba1ef	-0.022904364
185	0xbd8167b3	-0.06318607
186	0xbd7c363c	-0.06157516
187	0xbd615639	-0.05501387
188	0xbd7bf3ed	-0.061511923
189	0xbc2bc308	-0.010483511
190	0xbc992002	-0.01869202
191	0xbc526786	-0.012842065
192	0x3bc1dfac	0.0059165563
193	0x3d35c31c	0.044375524
194	0x3cfa7c30	0.030576795
195	0x3d837576	0.06418888
196	0x3d597405	0.05308916
197	0x3d9b0eb7	0.07571166
198	0x3d8e1000	0.069366455
199	0x3d9f69e5	0.0778387
200	0xb51d1324	-5.851491e-07
201	0x36b884ae	5.4990733e-06
202	0x3550311c	7.75575e-07
203	0x34ef6936	4.459377e-07
204	0x3723da88	9.766438e-06
205	0xbd29ea48	-0.041483194
206	0xbd467452	-0.048450775
207	0xbd2c2e3c	-0.04203628
208	0xbd1cae5a	-0.038252212
209	0xbccbe3dc	-0.024888925
210	0xbd972282	-0.07379629
211	0xbda228cd	-0.079179384
212	0xbcc03392	-0.02346209
213	0xbc4e4d02	-0.012591602
214	0xbd13398a	-0.035943545
215	0x3d6740ef	0.05645841
216	0x3d9bfe67	0.07616883
217	0x3d5e9ab4	0.054346755
218	0x3d2b160e	0.04176908
219	0x3d9111ae	0.0708345
220	0x3c215706	0.009847408
221	0xbcca60d9	-0.024704384
222	0x3c6ef603	0.014585021
223	0xbaedd8f8	-0.0018146327
224	0xbaec5f54	-0.0018033781
225	0x34f56265	4.5706398e-07
226	0x3732a7ad	1.0648667e-05
227	0x36815925	3.8548774e-06
228	0x35226c8e	6.050767e-07
229	0xb645b28d	-2.9459218e-06
230	0xbd1f26dd	-0.038855422
231	0xbd1ed1e9	-0.038774405
232	0xbd2fa0f1	-0.042878095
233	0xbd1187a0	-0.035529733
234	0xbd0c2e3c	-0.03422378
235	0xbc3f355a	-0.011670435
236	0xbc4b3750	-0.012403324
237	0xbb824c04	-0.003976347
238	0x3c2eadf2	0.010661589
239	0xbc43895f	-0.011934607
240	0x3d9a9acb	0.07549056
241	0x3d847efd	0.064695336
242	0x3d93836d	0.07202802
243	0x3cca04b6	0.02466045
244	0x3d9cb40a	0.07651527
245	0x3c118bdd	0.008883444
246	0xbc8a8f90	-0.016914159
247	0x3d393b2e	0.045222454
248	0x3c9e552a	0.019327719
249	0x3d072eec	0.033003733
250	0x36b63762	5.43047e-06
251	0xb684a2e4	-3.9528695e-06
252	0xb6000c12	-1.9080512e-06
253	0x36f7c089	7.3835877e-06
254	0xb740a6e6	-1.1482951e-05
255	0x3cfb8951	0.030705126

conv_block_3.2.bias f4 [8]
0	0xbb91ca28	-0.0044491477
1	0x3cea641c	0.028612189
2	0x3cb46591	0.022021087
3	0x3c91bcc4	0.017790206
4	0xbc2a7340	-0.010403454
5	0x3c2f0aa5	0.01068369
6	0xba08ab34	-0.00052134995
7	0x3bd6e0ee	0.0065575754

classifier.1.weight f4 [64, 48]
0	0xbdc13c57	-0.09435337
1	0xbd42110e	-0.047379546
2	0xbd93b067	-0.072113805
3	0xbe07bf93	-0.13256674
4	0x3d9736de	0.07383512
5	0xbcca525d	-0.024697477
6	0x3d586b6d	0.052836824
7	0x3d58b252	0.052904435
8	0x3cce4c9a	0.02518301
9	0xbd31719d	-0.04332124
10	0xbd543c9c	-0.051815614
11	0xbd94071f	-0.07227921
12	0xbe206b39	-0.15665902
13	0xbe25c6c8	-0.1618911
14	0xbde2aa0d	-0.11067591
15	0x3d9345b6	0.07191031
16	0xbe417fca	-0.18896404
17	0xbe0a762a	-0.13521639
18	0xbdd500ff	-0.104005806
19	0xbdba4385	-0.090949096
20	0x3dfcfbf4	0.12352744
21	0xbdcd9698	-0.10038489
22	0xbdb8a769	-0.09016306
23	0xbd8cd459	-0.068764396
24	0xbc7b3c25	-0.015334164
25	0xbd9cef18	-0.07662791
26	0xbdf6298e	-0.12019645
27	0x3d535bac	0.051601097
28	0xbcfcc21d	-0.03085428
29	0xbdfd3057	-0.12362736
30	0xbd057e1c	-0.03259097
31	0x3dabd3bb	0.08389994
32	0x3d58d7a3	0.052940022
33	0xbd865411	-0.06559003
34	0xbd4165b2	-0.047216125
35	0xbcfe879c	-0.031070523
36	0x3d5a27b6	0.053260528
37	0xbd97e006	-0.07415776
38	0x3dfde426	0.123970315
39	0x3cda2340	0.026628137
40	0x3d70c998	0.058786005
41	0x3cf97ee3	0.030456012
42	0x3db0aa84	0.08626273
43	0xbd882d3e	-0.06649254
44	0xbd979321	-0.074011095
45	0xbde6aa20	-0.112629175
46	0x3dc1a36f	0.094550006
47	0xbd00cbe6	-0.031444453
48	0x3cfcfac6	0.030881297
49	0x3e1d280c	0.15347308
50	0xba8d00a4	-0.0010757637
51	0xbc462b29	-0.012095251
52	0xbcb9e7af	-0.022693483
53	0x3de4ea1c	0.11177465
54	0x3c35fb49	0.011107274
55	0xbdb5c116	-0.08874719
56	0x3d952ee9	0.07284338
57	0x3d15e71a	0.03659735
58	0xbd2da61d	-0.042394746
59	0x3c911472	0.017709944
60	0xbda55606	-0.08073048
61	0xbd45cc3f	-0.048290487
62	0x3aca4193	0.001543092
63	0x3dfdcd71	0.123927005
64	0x3cba655f	0.022753416
65	0x3e237097	0.15960918
66	0xbe31aa7b	-0.1735019
67	0x3d8431ea	0.06454833
68	0xbe3a8b04	-0.18217093
69	0xbdbd390a	-0.09239395
70	0x3db77bbf	0.089591496
71	0xbdbb3760	-0.09141421
72	0xbd1bff41	-0.038085226
73	0x3dc0787d	0.09397981
74	0xbd708ea2	-0.058729775
75	0x3d3f455a	0.046697
76	0xbd0b3772	-0.033988424
77	0x3db4f778	0.088362634
78	0xbdbda4b7	-0.092599325
79	0xbdb9493c	-0.090471715
80	0xbde1941a	-0.11014576
81	0xbd3408e9	-0.04395381
82	0x3df5f89c	0.12010309
83	0x3d753298	0.059862703
84	0xbe100983	-0.14066128
85	0x3cbf588c	0.023357652
86	0x3da4eddd	0.08053181
87	0x3dba449e	0.09095119
88	0xbd0bd43b	-0.034137946
89	0x3c617633	0.013761091
90	0x3e1f7640	0.15572453
91	0x3e41ad69	0.18913807
92	0x3d646f95	0.055770475
93	0x3ccfc3bd	0.02536189
94	0x3e2bb091	0.16766573
95	0x3c59208b	0.013252388
96	0x3d99b384	0.07504943
97	0x3da606b1	0.08106745
98	0x39d15bb2	0.00039931905
99	0xbdfa5c36	-0.12224619
100	0x3d92e0f8	0.07171816
101	0x3cb84018	0.0224915
102	0x3c2a96b7	0.01041191
103	0x3c462d86	0.012095815
104	0x3d34a89f	0.044106122
105	0x3d7a47e2	0.06110371
106	0xbd9a3d51	-0.075312264
107	0xbdc153ef	-0.09439837
108	0x3d39081a	0.045173742
109	0xbdad5104	-0.08462718
110	0xbe15222f	-0.14563821
111	0x3da53517	0.08066767
112	0xbe06534b	-0.13117711
113	0xbd94764a	-0.07249124
114	0xbd7ce142	-0.06173826
115	0x3e0a1b87	0.13487063
116	0x3c17a7e9	0.0092563415
117	0xbd30d06e	-0.043167524
118	0x3e0764f7	0.13222109
119	0x3e1345a6	0.14382038
120	0x3d2285e1	0.039678458
121	0x3da078b3	0.078355215
122	0xbe075cd6	-0.13219008
123	0xbe07da3f	-0.13266848
124	0x3d3bd420	0.045856595
125	0xbd151b12	-0.03640277
126	0x3d06aa12	0.032877035
127	0x3dde5fd8	0.108581245
128	0xbcbe3288	-0.023217455
129	0xbd877e5a	-0.066158965
130	0x3de1391c	0.10997221
131	0xbd6f8277	-0.05847403
132	0xbd7f99f0	-0.062402666
133	0x3dbfd0a9	0.09365971
134	0x3b298437	0.002586616
135	0xbd47e96c	-0.048806593
136	0x3cfc154c	0.030771874
137	0xbd6ffc6e	-0.058590345
138	0xbcd25c0b	-0.025678655
139	0xbe0ca847	-0.13736068
140	0xbd811980	-0.06303692
141	0x3d94ffc8	0.07275349
142	0xbc161975	-0.009161343
143	0xbd3d4a7f	-0.046213623
144	0x3dffde10	0.12493527
145	0x3dcfbd59	0.10143537
146	0x3dd67819	0.104721256
147	0x3dc2ca86	0.095112845
148	0xbb6719bd	-0.0035263144
149	0xbda0a8cf	-0.07844698
150	0xbd3916f4	-0.045187905
151	0xbd732ba7	-0.059367802
152	0x3d1b771b	0.037955385
153	0x3dd073ee	0.10178362
154	0x3dee4410	0.11634076
155	0x3dea36f1	0.114362605
156	0x3c1f2395	0.009713073
157	0x3dc58756	0.09644954
158	0x3ba14819	0.004921925
159	0x3d843bf8	0.06456751
160	0xbdc7a710	-0.097486615
161	0x3e16b871	0.14718796
162	0x3d86d58f	0.06583702
163	0x3b2a081e	0.002594478
164	0xbd7087a7	-0.05872312
165	0x3cc0cdc1	0.023535611
166	0xbc91a053	-0.017776644
167	0xbdbead79	-0.09310431
168	0xbde082ea	-0.1096247
169	0xbdbf3f7c	-0.093382806
170	0xbc28b23d	-0.010296402
171	0xbe00d64b	-0.12581746
172	0x3cfe76ad	0.031062448
173	0xbdef795e	-0.11693071
174	0x3dc9aec0	0.09847784
175	0x3cf3c094	0.029754914
176	0x3cd33d81	0.025786163
177	0x3d29bb82	0.041438587
178	0x3cca8923	0.024723595
179	0x3d9f05a1	0.077647455
180	0xbce28086	-0.027649175
181	0xbd8e5250	-0.069492936
182	0xbc95df7e	-0.018295046
183	0xbdd39adc	-0.103322715
184	0x3c75d684	0.015004758
185	0xbc851d4a	-0.016249318
186	0x3da74be9	0.081687756
187	0xbc873500	-0.016504765
188	0x3c00690f	0.007837548
189	0xbd750b09	-0.059824977
190	0xbd666d80	-0.05625677
191	0x3c5dbc43	0.013533655
192	0x3d7f25d6	0.062291943
193	0xbca90eed	-0.020637
194	0x3ddbf70f	0.10740482
195	0xbc66ccf3	-0.01408695
196	0x3b54303d	0.0032377385
197	0x3decd0ba	0.11563249
198	0x3c46d02f	0.012134596
199	0x3dd5f81e	0.10447715
200	0x3d674f9e	0.056472413
201	0x3de06c76	0.10958187
202	0x3d62488f	0.05524498
203	0x3c46b260	0.012127489
204	0xbdd581bb	-0.10425135
205	0x3d66f4ea	0.056385912
206	0x3c0358ae	0.008016748
207	0xbd2cd0f7	-0.042191472
208	0xbd3c305b	-0.045944553
209	0xbd894066	-0.06701736
210	0xbd588491	-0.0528608
211	0x3d8e9efd	0.06963918
212	0xbd8b1e62	-0.067929044
213	0x3d28d737	0.04122087
214	0x3e068845	0.1313792
215	0x3db9bb64	0.09068945
216	0x3d19b681	0.037527565
217	0xbc568528	-0.01309327
218	0xbdb2a101	-0.08722115
219	0x3d05ff6f	0.032714304
220	0x3d927532	0.071512595
221	0x3c8fee45	0.01756967
222	0x3dc51d49	0.09624726
223	0xbdaacb92	-0.08339609
224	0xbdbce56a	-0.09223445
225	0xbb1d67fc	-0.0024018278
226	0x3cfa1611	0.0305281
227	0x3da087a6	0.07838373
228	0xbcdd6c30	-0.027029127
229	0xbd2c98c3	-0.042137872
230	0x3d88dad8	0.06682366
231	0x3acfd1a1	0.0015855321
232	0xbaa104d2	-0.0012284762
233	0xbdf45fa2	-0.11932303
234	0xbcb785de	-0.0224027
235	0x3d640a42	0.055673845
236	0x3df85cfb	0.121271096
237	0x3b332653	0.0027336075
238	0x3d9b0a46	0.07570319
239	0x3bf82f07	0.0075739655
240	0xbdaf13d8	-0.08548707
241	0x3c77ca39	0.015123897
242	0xbcd01214	-0.025399245
243	0x3b12b955	0.0022388299
244	0xbd02a1e9	-0.03189269
245	0x3dccae7d	0.099942185
246	0xbd94eead	-0.07272086
247	0xbd2ac147	-0.04168823
248	0x3a67e7fa	0.0008846518
249	0x3e066aec	0.13126725
250	0x3c573f26	0.013137614
251	0x3d13ee07	0.036115672
252	0x3d53ca68	0.0517067
253	0x3dc30e03	0.09524157
254	0xbd7f73fb	-0.062366467
255	0xbb206d8b	-0.0024479355

classifier.1.bias f4 [64]
0	0x3c7bf76b	0.015378813
1	0x3dee57ce	0.11637841
2	0xbd2dd356	-0.042437874
3	0x3c2c5ca9	0.010520139
4	0xbdbe2681	-0.09284688
5	0x3e014a89	0.12626089
6	0xbdbfdec2	-0.093686596
7	0xbda8f1d6	-0.082492515
8	0xbd227c78	-0.039669484
9	0xbba5f9c0	-0.005065173
10	0x3d1418e6	0.036156558
11	0x3e19a954	0.15006
12	0x3de1356b	0.10996517
13	0x3d33abc1	0.04386497
14	0x3d19350b	0.0374041
15	0x3e0b2c6d	0.13591166
16	0xbc530d1a	-0.012881542
17	0xbd2b4d42	-0.041821726
18	0x3dddf4c0	0.10837698
19	0x3e141687	0.14461718
20	0xbcf621da	-0.030045439
21	0xbc83cb13	-0.016088044
22	0x3e02c8a2	0.12771848
23	0xbd5a147c	-0.05324219
24	0x3e164073	0.14673023
25	0xbdf4c30b	-0.11951264
26	0x3d42e8f2	0.047585435
27	0x3dd13ab2	0.10216273
28	0xbdeef9d9	-0.116687484
29	0xbd3dcab0	-0.046335876
30	0x3e05ab90	0.13053727
31	0x3dfbaf6a	0.12289317
32	0xbd9a94bc	-0.075479
33	0x3e0b8c5f	0.13627766
34	0x3e03294d	0.12808724
35	0x3d8c4312	0.0684873
36	0xbc81ba61	-0.015835943
37	0xbd91b1e5	-0.07114009
38	0xbd2a7c98	-0.041622728
39	0x3d8a2dfd	0.06747053
40	0x3d76b7c2	0.06023384
41	0x3d1bd9b5	0.03804942
42	0xbd9420b6	-0.072328016
43	0x3dfd5b89	0.123709746
44	0x3d06a6ac	0.032873794
45	0x3d529701	0.05141354
46	0xbde15cbf	-0.11004018
47	0xbcbdb192	-0.023155961
48	0xbbe118ac	-0.006869396
49	0x3df8d9df	0.121509306
50	0x3e105a92	0.1409705
51	0xbd511036	-0.05104085
52	0xbd92022e	-0.07129322
53	0xbd942d8e	-0.07235251
54	0xbc1f89d5	-0.009737452
55	0xbde57e75	-0.112057604
56	0x3e0e4350	0.13892865
57	0xbda5fa54	-0.08104387
58	0x3e096378	0.1341685
59	0x3da3b3eb	0.07993301
60	0xbd510897	-0.051033583
61	0xbd87b955	-0.06627146
62	0x3d0545b4	0.032537177
63	0xbe0d075e	-0.13772342

classifier.4.weight f4 [3, 64]
0	0xbd74f5e7	-0.059804823
1	0x3d34f392	0.0441776
2	0xbe0c35d9	-0.13692416
3	0x3e1cd429	0.15315308
4	0xbd2fc764	-0.042914763
5	0xbd1fe0af	-0.039032634
6	0xbdbc9bb2	-0.09209384
7	0xbda97690	-0.08274567
8	0xbd1751bc	-0.036943182
9	0x3cf4ccab	0.02988275
10	0xbd91b83e	-0.071152195
11	0x3dd0b996	0.10191648
12	0x3c71f6e3	0.014768335
13	0x3dcd6c0d	0.10030375
14	0xbe16d4d1	-0.1472962
15	0xbdd558d2	-0.10417332
16	0x3da5e8d7	0.08101051
17	0x3dea8817	0.11451738
18	0x3da31438	0.07962841
19	0xbdb03846	-0.08604483
20	0xbbb7f1f0	-0.005613558
21	0x3e06d7ad	0.13168211
22	0x3d0473af	0.032336887
23	0x3d49d7a4	0.049277917
24	0xbdce1a7f	-0.100636475
25	0x3d453cfa	0.048153855
26	0x3d1779b5	0.036981303
27	0xbd9621cc	-0.07330665
28	0x3d3ff332	0.04686279
29	0xbe0aa1cb	-0.13538282
30	0x3e1006de	0.1406512
31	0x3d0d5f13	0.034514498
32	0x3d4752ce	0.048662953
33	0xbafe44fd	-0.0019399222
34	0xbb7c9a7b	-0.0038544226
35	0x3dff94af	0.12479531
36	0xbd410547	-0.047124173
37	0xbcd8f449	-0.026483672
38	0x3ca37944	0.019955285
39	0xbcced5c5	-0.025248418
40	0xbc963dd5	-0.01834003
41	0x3da8494b	0.082171045
42	0x3d5e0bd9	0.054210518
43	0xbd75dafd	-0.060023297
44	0x3cc88858	0.024479076
45	0x3c6e9239	0.014561229
46	0xbdf385f1	-0.11890782
47	0xbe18c757	-0.14919792
48	0x3c4f9d75	0.012671818
49	0xbba83083	-0.005132736
50	0xbde54d54	-0.1119639
51	0x3df33db4	0.11877003
52	0x3d60682a	0.05478684
53	0xbde36f68	-0.111052334
54	0x3e13e2e5	0.14442022
55	0x3d27a41e	0.040928
56	0xbc84c38d	-0.016206527
57	0xbcdea2a9	-0.027177172
58	0xbdee555f	-0.11637377
59	0xbd46b3bf	-0.048511263
60	0x3d68c2c3	0.056826364
61	0xbdd98146	-0.1062036
62	0x3d9afcf1	0.07567776
63	0x3d24600f	0.04013067
64	0x3e21ec9f	0.1581292
65	0xbe15141a	-0.1455845
66	0x3d91ae37	0.07113307
67	0x3c98d09d	0.018654162
68	0xbd8cbe2f	-0.06872212
69	0x3dd8e000	0.105895996
70	0x3c905dff	0.017622946
71	0x3d8f3f92	0.06994547
72	0xbdcb578b	-0.09928807
73	0x3d0ca9e3	0.034341704
74	0xbe0953e7	-0.13410912
75	0x3ceb1e73	0.028701043
76	0x3df21eab	0.11822256
77	0xbe1fefe8	-0.1561886
78	0x3dfd33f9	0.123634286
79	0x3dcc8d2a	0.099878624
80	0xbd7b86a0	-0.061407685
81	0x3df5e9a5	0.12007455
82	0xbd4ddf95	-0.050262053
83	0xbd97a35b	-0.074042045
84	0xbd43d064	-0.04780616
85	0x3d2bf7dc	0.041984424
86	0xbe222fae	-0.15838501
87	0xbcc58236	-0.024109941
88	0x3defcebe	0.11709355
89	0x3db4cfdf	0.08828711
90	0x3e0405bc	0.12892812
91	0x3d9f1b01	0.077688225
92	0x3d66beaa	0.056334175
93	0x3c8ed37a	0.017434824
94	0xbd64bbe0	-0.055843234
95	0x3dbcb6b8	0.09214538
96	0xbdc3c35b	-0.095587455
97	0xbdc27184	-0.09494308
98	0xbd89d78e	-0.06730567
99	0xbdddb438	-0.108253896
100	0xbc4b179e	-0.0123957675
101	0xbd48a27e	-0.04898309
102	0xbc9e2d72	-0.01930878
103	0x3db878bf	0.090074055
104	0x3de9c217	0.11413973
105	0xbe017480	-0.12642097
106	0x3e2b792e	0.16745445
107	0x3de8ec92	0.11373247
108	0xbdb283da	-0.08716555
109	0x3d4f3cd5	0.050595123
110	0xbd95bf91	-0.07311929
111	0x3e247d72	0.16063479
112	0xbd3c55aa	-0.045980133
113	0x3e074149	0.13208498
114	0x3e13e24d	0.14441796
115	0x3df062e2	0.117376104
116	0x3d916f6e	0.07101332
117	0x3d6d167c	0.05788277
118	0xbdf7652b	-0.12079843
119	0xbd171aa9	-0.03689066
120	0x3dac7ecc	0.08422622
121	0x3e2a8de4	0.1665569
122	0x3d9fdeca	0.078061655
123	0xbddebe43	-0.10876133
124	0x3d64792e	0.05577963
125	0xbaadf573	-0.0013272002
126	0xbd6e9ebc	-0.05825685
127	0xbdf32e11	-0.11874021
128	0xbcf713bd	-0.03016078
129	0x3c500f3d	0.012698946
130	0x3d1b2985	0.037881393
131	0xbdbb16ba	-0.09135194
132	0xbdde6e54	-0.10860887
133	0xbcf4a153	-0.029862082
134	0x3e1f018a	0.15527931
135	0x3dc5a588	0.09650713
136	0x3d65c917	0.056099977
137	0xbdf4dfc7	-0.11956745
138	0x3cb2a121	0.021805348
139	0xbda2203a	-0.07916303
140	0x3b28a0a6	0.002573052
141	0x3ddda788	0.1082297
142	0x3dc863ed	0.09784684
143	0x3cdd4ab2	0.027013157
144	0x3ddb3557	0.10703533
145	0xbd8276e7	-0.06370335
146	0xbc48dc96	-0.012259623
147	0xbe268160	-0.1626029
148	0xbde9eb87	-0.114218764
149	0xbddacf8b	-0.10684117
150	0x3dae3533	0.08506241
151	0x3d3288fc	0.04358767
152	0xbde0e7e4	-0.109817296
153	0x3da7609d	0.081727244
154	0xbe2da25d	-0.16956468
155	0xbcb68026	-0.022277903
156	0xbe0f3201	-0.13983919
157	0x3e0f6a38	0.14005363
158	0xbdc56621	-0.0963862
159	0xbdfa4ece	-0.12222062
160	0x3d6d0786	0.057868503
161	0x3abc5f37	0.0014371638
162	0x3de8df15	0.113706745
163	0x3ddcae92	0.10775484
164	0x3e2421c8	0.16028512
165	0x3d52f407	0.051502254
166	0x3bc12edc	0.0058954787
167	0xbe153b9d	-0.14573522
168	0xbe0d5633	-0.13802414
169	0xbd94e287	-0.07269769
170	0x3d421a2e	0.04738825
171	0x3c268127	0.010162628
172	0xbd41216d	-0.047151018
173	0x3e222cff	0.15837477
174	0xba500154	-0.0007934768
175	0x3dbf710d	0.093477346
176	0x3e194ac0	0.14969921
177	0xbc80e66a	-0.01573487
178	0xbe1b7b18	-0.15183675
179	0xbc1b384f	-0.009473874
180	0xbd1676a0	-0.036734223
181	0xbdbf5a78	-0.093434274
182	0xbdf75ce9	-0.12078268
183	0xbd92620a	-0.07147606
184	0x3d4273e2	0.047473796
185	0x3c33992e	0.010961814
186	0xba091a0a	-0.00052300154
187	0x3df1aad3	0.1180016
188	0xbd3ee62f	-0.04660624
189	0xbcb2b06c	-0.02181264
190	0x3e1a044d	0.15040703
191	0xbd46f967	-0.048577692

classifier.4.bias f4 [3]
0	0xbdd687e4	-0.10475138
1	0x3df9fc63	0.12206342
2	0x3d8c4c8c	0.06850538
